…
bsqi filtered Validation from 5754 to 5559
--------------------------------------------------------------
--------------------------------------------------------------
created Test dataset with 7115 intervals
Using bsqi scores to filter Test dataset with threshold of 0.925
bsqi filtered Test from 7115 to 6902
--------------------------------------------------------------
----------------------------------------------------------------
        Layer (type)               Output Shape         Param #
================================================================
            Conv1d-1             [-1, 32, 2500]             544
       BatchNorm1d-2             [-1, 32, 2500]              64
              ReLU-3             [-1, 32, 2500]               0
       BatchNorm1d-4             [-1, 32, 2500]              64
              ReLU-5             [-1, 32, 2500]               0
           Dropout-6             [-1, 32, 2500]               0
            Conv1d-7             [-1, 64, 2500]          34,816
       BatchNorm1d-8             [-1, 64, 2500]             128
              ReLU-9             [-1, 64, 2500]               0
          Dropout-10             [-1, 64, 2500]               0
           Conv1d-11             [-1, 64, 2500]          69,632
           Conv1d-12             [-1, 64, 2500]           2,048
      BatchNorm1d-13             [-1, 64, 2500]             128
       BasicBlock-14             [-1, 64, 2500]               0
      BatchNorm1d-15             [-1, 64, 2500]             128
             ReLU-16             [-1, 64, 2500]               0
          Dropout-17             [-1, 64, 2500]               0
           Conv1d-18            [-1, 128, 1250]         139,264
      BatchNorm1d-19            [-1, 128, 1250]             256
             ReLU-20            [-1, 128, 1250]               0
          Dropout-21            [-1, 128, 1250]               0
           Conv1d-22            [-1, 128, 1250]         278,528
           Conv1d-23            [-1, 128, 1250]           8,192
      BatchNorm1d-24            [-1, 128, 1250]             256
       BasicBlock-25            [-1, 128, 1250]               0
      BatchNorm1d-26            [-1, 128, 1250]             256
             ReLU-27            [-1, 128, 1250]               0
          Dropout-28            [-1, 128, 1250]               0
           Conv1d-29            [-1, 128, 1250]         278,528
      BatchNorm1d-30            [-1, 128, 1250]             256
             ReLU-31            [-1, 128, 1250]               0
          Dropout-32            [-1, 128, 1250]               0
           Conv1d-33            [-1, 128, 1250]         278,528
       BasicBlock-34            [-1, 128, 1250]               0
      BatchNorm1d-35            [-1, 128, 1250]             256
             ReLU-36            [-1, 128, 1250]               0
          Dropout-37            [-1, 128, 1250]               0
           Conv1d-38             [-1, 256, 625]         557,056
      BatchNorm1d-39             [-1, 256, 625]             512
             ReLU-40             [-1, 256, 625]               0
          Dropout-41             [-1, 256, 625]               0
           Conv1d-42             [-1, 256, 625]       1,114,112
           Conv1d-43             [-1, 256, 625]          32,768
      BatchNorm1d-44             [-1, 256, 625]             512
       BasicBlock-45             [-1, 256, 625]               0
      BatchNorm1d-46             [-1, 256, 625]             512
             ReLU-47             [-1, 256, 625]               0
          Dropout-48             [-1, 256, 625]               0
           Conv1d-49             [-1, 256, 625]       1,114,112
      BatchNorm1d-50             [-1, 256, 625]             512
             ReLU-51             [-1, 256, 625]               0
          Dropout-52             [-1, 256, 625]               0
           Conv1d-53             [-1, 256, 625]       1,114,112
       BasicBlock-54             [-1, 256, 625]               0
      BatchNorm1d-55             [-1, 256, 625]             512
             ReLU-56             [-1, 256, 625]               0
          Dropout-57             [-1, 256, 625]               0
           Conv1d-58             [-1, 512, 313]       2,228,224
      BatchNorm1d-59             [-1, 512, 313]           1,024
             ReLU-60             [-1, 512, 313]               0
          Dropout-61             [-1, 512, 313]               0
           Conv1d-62             [-1, 512, 313]       4,456,448
           Conv1d-63             [-1, 512, 313]         131,072
      BatchNorm1d-64             [-1, 512, 313]           1,024
       BasicBlock-65             [-1, 512, 313]               0
      BatchNorm1d-66             [-1, 512, 313]           1,024
             ReLU-67             [-1, 512, 313]               0
          Dropout-68             [-1, 512, 313]               0
           Conv1d-69             [-1, 512, 313]       4,456,448
      BatchNorm1d-70             [-1, 512, 313]           1,024
             ReLU-71             [-1, 512, 313]               0
          Dropout-72             [-1, 512, 313]               0
           Conv1d-73             [-1, 512, 313]       4,456,448
       BasicBlock-74             [-1, 512, 313]               0
AdaptiveAvgPool1d-75               [-1, 512, 1]               0
           Linear-76                    [-1, 1]             513
================================================================
Total params: 20,759,841
Trainable params: 20,759,841
Non-trainable params: 0
----------------------------------------------------------------
Input size (MB): 0.01
Forward/backward pass size (MB): 86.71
Params size (MB): 79.19
Estimated Total Size (MB): 165.91
----------------------------------------------------------------
| module                   | #parameters or shape   | #flops     |
…
