…
--------------------------------------------------------------
created Test dataset with 8996 intervals
Using bsqi scores to filter Test dataset with threshold of 0.925
bsqi filtered Test from 8996 to 8685
--------------------------------------------------------------
class distribution for the test_dataset
label 0: 5417   |   Prec: 0.80%
label 1: 1354   |   Prec: 0.20%
----------------------------------------------------------------
        Layer (type)               Output Shape         Param #
================================================================
            Conv1d-1             [-1, 32, 2500]             544
       BatchNorm1d-2             [-1, 32, 2500]              64
              ReLU-3             [-1, 32, 2500]               0
       BatchNorm1d-4             [-1, 32, 2500]              64
              ReLU-5             [-1, 32, 2500]               0
           Dropout-6             [-1, 32, 2500]               0
            Conv1d-7             [-1, 64, 2500]          34,816
       BatchNorm1d-8             [-1, 64, 2500]             128
              ReLU-9             [-1, 64, 2500]               0
          Dropout-10             [-1, 64, 2500]               0
           Conv1d-11             [-1, 64, 2500]          69,632
           Conv1d-12             [-1, 64, 2500]           2,048
      BatchNorm1d-13             [-1, 64, 2500]             128
       BasicBlock-14             [-1, 64, 2500]               0
      BatchNorm1d-15             [-1, 64, 2500]             128
             ReLU-16             [-1, 64, 2500]               0
          Dropout-17             [-1, 64, 2500]               0
           Conv1d-18            [-1, 128, 1250]         139,264
      BatchNorm1d-19            [-1, 128, 1250]             256
             ReLU-20            [-1, 128, 1250]               0
          Dropout-21            [-1, 128, 1250]               0
           Conv1d-22            [-1, 128, 1250]         278,528
           Conv1d-23            [-1, 128, 1250]           8,192
      BatchNorm1d-24            [-1, 128, 1250]             256
       BasicBlock-25            [-1, 128, 1250]               0
      BatchNorm1d-26            [-1, 128, 1250]             256
             ReLU-27            [-1, 128, 1250]               0
          Dropout-28            [-1, 128, 1250]               0
           Conv1d-29             [-1, 256, 625]         557,056
      BatchNorm1d-30             [-1, 256, 625]             512
             ReLU-31             [-1, 256, 625]               0
          Dropout-32             [-1, 256, 625]               0
           Conv1d-33             [-1, 256, 625]       1,114,112
           Conv1d-34             [-1, 256, 625]          32,768
      BatchNorm1d-35             [-1, 256, 625]             512
       BasicBlock-36             [-1, 256, 625]               0
      BatchNorm1d-37             [-1, 256, 625]             512
             ReLU-38             [-1, 256, 625]               0
          Dropout-39             [-1, 256, 625]               0
           Conv1d-40             [-1, 512, 313]       2,228,224
      BatchNorm1d-41             [-1, 512, 313]           1,024
             ReLU-42             [-1, 512, 313]               0
          Dropout-43             [-1, 512, 313]               0
           Conv1d-44             [-1, 512, 313]       4,456,448
           Conv1d-45             [-1, 512, 313]         131,072
      BatchNorm1d-46             [-1, 512, 313]           1,024
       BasicBlock-47             [-1, 512, 313]               0
AdaptiveAvgPool1d-48               [-1, 512, 1]               0
           Linear-49                    [-1, 1]             513
================================================================
Total params: 9,058,081
Trainable params: 9,058,081
Non-trainable params: 0
----------------------------------------------------------------
Input size (MB): 0.01
Forward/backward pass size (MB): 53.73
Params size (MB): 34.55
Estimated Total Size (MB): 88.29
----------------------------------------------------------------
| module                   | #parameters or shape   | #flops     |
…
